position_control/probabilistic_ensemble_nn/checkpoint/penn_model_0907.pth (torch, 223272 bytes, 10 tensors)

model.lin1.weights f4 [3, 6, 40]
0	0x3eaf94f2	0.34293324
1	0x3ecbd658	0.3981197
2	0xbe02afae	-0.12762329
3	0x3f11cbbe	0.5695151
4	0xbdc05c76	-0.093926355
5	0x3daec894	0.08534351
6	0xbec5a3b9	-0.38601473
7	0x3ea314b8	0.31851745
8	0x3f21a9b5	0.6314958
9	0xbefd9c77	-0.49533436
10	0x3f0e597d	0.556053
11	0xbc6ec46a	-0.014573196
12	0x3ef9b3ec	0.48770082
13	0xbdf26aa5	-0.11836747
14	0x3e9067f5	0.28204313
15	0x3e13b6af	0.14425157
16	0x3e048ecd	0.12945099
17	0xbd945632	-0.07243003
18	0x39a3e945	0.00031263582
19	0x3e57acbb	0.21061985
20	0xbebbe441	-0.3669758
21	0xbe705652	-0.23470429
22	0xbe6cf101	-0.2313881
23	0x3eae3532	0.3402496
24	0xbf092492	-0.53571427
25	0xbe1a0d7e	-0.1504421
26	0xbe7b2a76	-0.24527916
27	0xbed942e6	-0.42433852
28	0x3e25a4e7	0.16176187
29	0xbf1cb2e0	-0.6121044
30	0x3eb76efa	0.35826856
31	0xbf005afa	-0.5013882
32	0x3ec812dc	0.3907689
33	0x3e27dcd2	0.1639283
34	0xbe7bafd1	-0.24578787
35	0x3ec18095	0.37793413
36	0x3c825130	0.015907854
37	0x3e80a7da	0.2512806
38	0x3ce84e5b	0.028357675
39	0xbe5c0d87	-0.21489535
40	0x3c1972a9	0.009365716
41	0xbdf7ae59	-0.12093801
42	0x3e1578e5	0.14596899
43	0x3d7683b7	0.060184207
44	0x3e2da0de	0.16955897
45	0xbdfbb612	-0.122905865
46	0x3e59ddba	0.21275988
47	0xbd200154	-0.039063767
48	0x3e784b16	0.24247393
49	0xbe8ef9bb	-0.27924904
50	0xbeacd621	-0.33757117
51	0xbe096364	-0.13416821
52	0xbe123710	-0.14278817
53	0x3ce8ec74	0.028433062
54	0x3e253440	0.16133213
55	0xba2cbdfa	-0.0006589588
56	0x3df0a5e2	0.1175039
57	0xbdd924b7	-0.10602706
58	0x3ed7ef46	0.4217474
59	0xbd40b83d	-0.047050703
60	0xbd92698e	-0.07149039
61	0xbea94524	-0.33060563
62	0x3de6397a	0.112414315
63	0xbe0064b6	-0.12538418
64	0x3e233f46	0.15942106
65	0xbd69fb4c	-0.05712442
66	0x3e9f45a8	0.3110783
67	0xbe93859c	-0.28812873
68	0xbe1c2cae	-0.15251419
69	0xbe7cd6ab	-0.24691264
70	0x3e6bdaf9	0.2303275
71	0x3de72027	0.112854294
72	0x3df6cc4f	0.120506875
73	0xbf176d2d	-0.59150964
74	0xbf1f9754	-0.62340283
75	0xbf114184	-0.56740594
76	0xbe5433a9	-0.20722832
77	0x3e0476f2	0.12935999
78	0x3e8a5866	0.27020568
79	0x3e7bc47b	0.2458667
80	0xbe236fe0	-0.15960646
81	0xbe955442	-0.29165846
82	0x3e9b0152	0.30274445
83	0xbde9230a	-0.11383636
84	0x3eb07f35	0.3447205
85	0x3e4896c2	0.1958876
86	0x3ea7e324	0.32790482
87	0xbea0a50c	-0.3137592
88	0xbee3979b	-0.44451603
89	0x3e8257e2	0.25457674
90	0x3e16ef60	0.14739752
91	0xbe6f3c56	-0.2336286
92	0x3e03b0f9	0.12860478
93	0x3ecd38ef	0.400825
94	0xbeacb61b	-0.33732685
95	0xbe855a4b	-0.2604545
96	0x3f151b3d	0.5824469
97	0x3e9ae976	0.30256242
98	0xbe88f4ab	-0.26749167
99	0xbf117dba	-0.5683247
100	0xbea45b6d	-0.32101002
101	0x3e2f6e44	0.17131907
102	0xbee5b36d	-0.44863454
103	0xbe8c92d0	-0.2745576
104	0xbc806da0	-0.015677273
105	0xbed9568d	-0.42448846
106	0xbf1bc217	-0.6084303
107	0xbea21d27	-0.31662866
108	0xbf12f178	-0.573997
109	0xbe95e906	-0.29279345
110	0x3f07c052	0.5302783
111	0x3da6a8b1	0.08137644
112	0x3e87ce04	0.26524365
113	0xbf0921a2	-0.53566945
114	0xbec295bd	-0.38004866
115	0xbdd1312c	-0.10214457
116	0xbd5f14f8	-0.054463357
117	0xbf267c15	-0.65033084
118	0xbeaabc74	-0.33346903
119	0xbe763b19	-0.24045981
120	0x3bd62d30	0.0065361485
121	0xbdf156c0	-0.117841244
122	0x3d12af68	0.03581181
123	0xbe5bd7e2	-0.21469072
124	0xbe8ab56f	-0.27091548
125	0xbdfee38c	-0.12445745
126	0xbd53314b	-0.05156068
127	0xbe754f48	-0.23956025
128	0x3efaa4d6	0.48953885
129	0x3d81740d	0.06320963
130	0x3eae0e9e	0.33995527
131	0x3e1f7dd0	0.15575337
132	0xbdf2b1af	-0.11850297
133	0x3e99ca36	0.30037087
134	0xbd3f154a	-0.046651162
135	0xbe2cb880	-0.16867256
136	0xbe927545	-0.28605095
137	0xbebd76b9	-0.3700464
138	0x3dc7edc8	0.0976215
139	0xbe21ba22	-0.1579366
140	0xbca80740	-0.02051127
141	0xbe92a545	-0.28641716
142	0x3f0f1929	0.55897766
143	0xbe5842dd	-0.21119256
144	0xbd88879b	-0.0666649
145	0x3d818aed	0.06325326
146	0x3e881dde	0.26585287
147	0x3e2b3fe9	0.16723599
148	0x3ea5f58e	0.32413906
149	0xbe731f67	-0.23742448
150	0x3da7d418	0.081947505
151	0xbdc4c53f	-0.09607934
152	0xbd7e4926	-0.06208148
153	0xbde6fcae	-0.112786636
154	0x3df5f4f0	0.12009609
155	0xbda7605a	-0.081726745
156	0x3ea84003	0.32861337
157	0x3ed2d2a9	0.41176346
158	0x3e3f1840	0.18661594
159	0xbe084b0c	-0.13309878
160	0x3e909bcf	0.28243873
161	0x3d8e7e54	0.06957689
162	0x3e184d3d	0.14873214
163	0xbea2d7a3	-0.31805143
164	0x3df9f4d5	0.12204901
165	0xbe8febbb	-0.28109536
166	0xbd61f5bf	-0.055166002
167	0x3e1c4a21	0.15262653
168	0x3d3268cf	0.043556985
169	0xbdefc16c	-0.11706814
170	0xba5b9896	-0.0008376924
171	0xbdca96eb	-0.098920666
172	0x3d8af92d	0.06785808
173	0xbdd3567c	-0.1031923
174	0xbe3234f7	-0.17403017
175	0x3da2c263	0.079472326
176	0xbe0f19a8	-0.13974631
177	0x3d2013db	0.039081436
178	0x3c1f9375	0.009739746
179	0xbede8d55	-0.43467203
180	0x3e0ac0b6	0.13550076
181	0x3e4a1dc6	0.1973792
182	0xb9a8128b	-0.00032057273
183	0x3c0b1c61	0.008490653
184	0x3dc87207	0.09787374
185	0x3e4bea5d	0.19913621
186	0x3d2ac5de	0.041692607
187	0x3c95d99e	0.018292245
188	0xbdd76235	-0.105167784
189	0xbd2bd1f1	-0.041948263
190	0xbd9cfc20	-0.076652765
191	0xbe34bdde	-0.17650554
192	0x3ec08685	0.3760263
193	0x3e2ea92f	0.17056726
194	0x3dcba767	0.09944039
195	0xbd03d346	-0.032183908
196	0x3bccf943	0.0062553002
197	0xbce59049	-0.028022902
198	0xbd995083	-0.074860595
199	0x3acffa72	0.0015867485
200	0xbe8a2558	-0.26981616
201	0xbdb7b84d	-0.089706995
202	0x3e4319df	0.19052838
203	0x3e1a6322	0.15076879
204	0x3da22cad	0.079186775
205	0xbe74abf2	-0.23893717
206	0xbd8b2027	-0.06793242
207	0xbf09ae90	-0.53781986
208	0x3c74e8b0	0.014948055
209	0x3da5a7a9	0.08088619
210	0xbc12ae0d	-0.00895263
211	0x3d29bd99	0.04144058
212	0xbf3dbe9c	-0.7411897
213	0xbdcd683c	-0.10029647
214	0xbdbcc9c5	-0.09218172
215	0x3e43fe0b	0.19139878
216	0xbdbafdfe	-0.091304764
217	0xbc1c120b	-0.009525786
218	0x3ad3cd2f	0.0016159172
219	0x3d37c81e	0.04486858
220	0xbe2b3a86	-0.16721544
221	0x3e1ad1ce	0.15119097
222	0x3bf831dc	0.007574303
223	0xb9a7ede9	-0.0003202998
224	0xbe2881f1	-0.16455819
225	0x3e401388	0.1875745
226	0x3d2f1924	0.042748585
227	0x3dd79f00	0.10528374
228	0xbe193d39	-0.14964761
229	0xbe5a3acc	-0.21311492
230	0xbe10d8a6	-0.14145145
231	0x3e2bb4b6	0.16768155
232	0x3eb8f988	0.36127877
233	0x3db1d02c	0.08682284
234	0x3d6a0d94	0.057141855
235	0xbc729c84	-0.014807824
236	0x3bd26fa6	0.006422001
237	0xbce048c6	-0.027378451
238	0xbe572439	-0.21009912
239	0xbeabfbaa	-0.33590442
240	0x3dcd70cf	0.10031282
241	0xbe82b16b	-0.25525984
242	0x3926a4d2	0.00015892394
243	0xbe8c5ab9	-0.27412966
244	0xbcc2cbfd	-0.02377891
245	0xbee60e4d	-0.44932786
246	0xbe62e702	-0.22158435
247	0x3e2726d4	0.16323406
248	0xbe18b777	-0.14913736
249	0x3ed63c69	0.41842964
250	0x3bdb7ca1	0.0066982065
251	0xbea39745	-0.31951347
252	0xbd6f9d42	-0.058499582
253	0xbe51791f	-0.2045636
254	0xbdbcf9e0	-0.092273474
255	0xbf19fe01	-0.60153204

model.lin1.biases f4 [3, 1, 40]
0	0x3deebd06	0.11657147
1	0x3ec120b0	0.3772025
2	0x3ec2b281	0.38026813
3	0x3ec6a986	0.3880121
4	0x3dacbc64	0.0843437
5	0x3e0fb405	0.14033516
6	0x3e6547d0	0.22390676
7	0xbe9e7b5e	-0.30953497
8	0xbe9589c8	-0.2920668
9	0xbe2824ba	-0.1642026
10	0x3ef68f55	0.4815623
11	0xbedc9f78	-0.43090415
12	0xbe4c8ae9	-0.19974865
13	0x3f031a78	0.51212263
14	0x3dddd093	0.10830798
15	0x3f11a8ef	0.568984
16	0xbd83ee44	-0.0644193
17	0xbd5d9bf6	-0.054103814
18	0x3ee05285	0.43812957
19	0x3e1f8699	0.15578689
20	0x3e46360a	0.19356552
21	0x3e28d2e0	0.16486692
22	0xbe07b842	-0.13253883
23	0x3f266387	0.64995617
24	0xbe38ab90	-0.18034196
25	0xbdaeb6d9	-0.08530969
26	0x3e40ecf8	0.18840396
27	0xbec3e864	-0.38263237
28	0xbef17987	-0.4716303
29	0x3e331aa6	0.17490634
30	0x3edc8379	0.43069056
31	0xbcf71d78	-0.030165419
32	0x3dd7dae1	0.10539795
33	0x3c5cbcb3	0.013472724
34	0x3e85b3cc	0.26113737
35	0xbcc3d1d2	-0.023903761
36	0x3df50901	0.11964608
37	0x3d8b2a2e	0.067951545
38	0xbeb544ed	-0.3540415
39	0x3e7a7c82	0.24461558
40	0xbe4b2f75	-0.19842322
41	0xbd1eab4b	-0.038737576
42	0x3bd04d84	0.006356897
43	0xbe5e2579	-0.21693982
44	0xbebad8bf	-0.3649349
45	0xbc78869f	-0.015168815
46	0x3c8ad5f1	0.016947718
47	0xbeb9770f	-0.36223647
48	0xbd2008d9	-0.039070938
49	0x3ee80fc0	0.45324516
50	0x3e856103	0.26050577
51	0x3ea030fe	0.31287378
52	0xbe0bef3d	-0.13665481
53	0xbeb468a0	-0.35236073
54	0x3e1711b9	0.14752854
55	0xbdde725e	-0.108616576
56	0xbf2de8dc	-0.6793344
57	0x3dcfc1bd	0.101443745
58	0xbc53e2f6	-0.01293253
59	0x3e473ccd	0.19456787
60	0x3e3039b0	0.17209506
61	0xbe834d8c	-0.256451
62	0x3e09b4b5	0.1344784
63	0x3d9c0bd2	0.07619442
64	0xbe327800	-0.17428589
65	0xbe80040b	-0.25003085
66	0x3f05ce25	0.52267677
67	0xbe70beda	-0.23510304
68	0xbe14b46e	-0.14521953
69	0x3f0da49a	0.5532929
70	0x3e965e6f	0.29368922
71	0x3d902f09	0.07040221
72	0x3f14f406	0.5818485
73	0x3dac768a	0.08421047
74	0x3e810c98	0.2520492
75	0xbe79e5c7	-0.2440406
76	0xbddac095	-0.10681263
77	0xbcc5e9c0	-0.024159312
78	0xbea4f5ab	-0.3221868
79	0x3f0fbe14	0.5614941
80	0x3e3749a5	0.17899187
81	0x3ec30a4b	0.3809379
82	0xbe9eaeb2	-0.30992657
83	0x3eddb1f3	0.43299827
84	0xbe54505d	-0.20733781
85	0xbe64557a	-0.22298232
86	0xbe14e6de	-0.14541194
87	0x3d9eb22f	0.077488296
88	0x3ecc0a42	0.39851576
89	0xbec4b0bf	-0.38416097
90	0xbeda4dd3	-0.426375
91	0x3cd2a3aa	0.025712807
92	0x3e68b9bb	0.227271
93	0x3ef9fb8e	0.48824733
94	0x3ec9aa6f	0.39387843
95	0xbdcd854c	-0.1003519
96	0x3e886ef7	0.2664716
97	0x3f06107f	0.5236892
98	0xbe754b48	-0.23954499
99	0x3e3ae513	0.18251447
100	0x3e786875	0.24258597
101	0x3ea2f7f1	0.3182979
102	0xbdd36bac	-0.10323271
103	0xbd54f5b3	-0.05199213
104	0x3e268787	0.16262637
105	0x3dedbf35	0.116087355
106	0x3e7862a1	0.24256374
107	0xbf194164	-0.59865403
108	0x3e9ce289	0.30641583
109	0xbe9ee90b	-0.31037173
110	0x3eeb76fb	0.45989212
111	0x3d767017	0.06016549
112	0xbef4873d	-0.4775943
113	0xbeaa4488	-0.3325541
114	0xbd901b22	-0.07036425
115	0x3e567d51	0.20946242
116	0x3bbc357d	0.005743681
117	0xbe0d795a	-0.13815823
118	0x3eac56d2	0.3365999
119	0xbe8c0d9a	-0.27354127

model.lin2.weights f4 [3, 40, 80]
0	0x3d9ab160	0.07553363
1	0xbe03565c	-0.12825912
2	0xbdd5cfea	-0.10440047
3	0xbe40a0da	-0.1881136
4	0x3d0be8e1	0.034157638
5	0xbb1bd3cd	-0.0023777366
6	0x3d6077c4	0.054801717
7	0xbe63c93f	-0.22244738
8	0x3c9eb656	0.019374054
9	0x3d12bdfd	0.03582572
10	0x3dc618f8	0.09672731
11	0xbd9ffe16	-0.07812135
12	0xbe14e8b6	-0.14541897
13	0x3e1be218	0.15222967
14	0xbcb5728b	-0.022149345
15	0xbd1a1fbb	-0.037627917
16	0x3df97b93	0.12181773
17	0x3da39d12	0.07988943
18	0x3e2df2c9	0.16987146
19	0x3d22d4db	0.039753776
20	0xbba1f3c0	-0.0049423873
21	0xbd89472c	-0.06703028
22	0x3e49afa7	0.19695912
23	0x3d2396fb	0.039938908
24	0xbc76f1c9	-0.0150722945
25	0xbea98be9	-0.33114555
26	0x3e02c452	0.12770203
27	0x3cff30ee	0.031151261
28	0xbe3aaf2b	-0.18230884
29	0xbdb10a1c	-0.08644506
30	0xbdedfd44	-0.11620572
31	0xbde3cd29	-0.111231156
32	0xbc8f2d10	-0.017477542
33	0x3c9fc279	0.019501911
34	0xbde545c5	-0.11194948
35	0xbd1a8789	-0.037726913
36	0x3d1ae13e	0.037812464
37	0x3d98c251	0.07458938
38	0x3df681bd	0.12036464
39	0xbce542c4	-0.027985938
40	0x3d8d7a8e	0.06908141
41	0xbd896a36	-0.06709711
42	0x3cbbc10f	0.022919206
43	0x3e08573b	0.13314526
44	0x3e3da027	0.18518125
45	0x3c0aab47	0.008463687
46	0xbd30ccbc	-0.043164
47	0xbe056c7e	-0.13029668
48	0xbd37e635	-0.044897277
49	0x3d3439f6	0.04400059
50	0xbe02c5ab	-0.12770717
51	0x3c8d5942	0.017254476
52	0xbcccf6db	-0.025020054
53	0xbdc58f9a	-0.096465304
54	0x3dc380d4	0.095460564
55	0xbd972086	-0.0737925
56	0x3d5ea347	0.054354932
57	0xbe3108e1	-0.17288543
58	0xbe895803	-0.2682496
59	0xbdd400e8	-0.10351735
60	0x3d9548fe	0.07289313
61	0xbe4d30ea	-0.2003819
62	0x3dc4fcb0	0.09618509
63	0xbe5c2ced	-0.21501513
64	0x3cca77ad	0.024715269
65	0x3b210ad7	0.0024573111
66	0xbcee332f	-0.02907714
67	0x3dcd0249	0.100102015
68	0xbd99824f	-0.074955575
69	0xbd2fe51d	-0.04294311
70	0x3d02c109	0.031922374
71	0xbbd922a2	-0.006626443
72	0x3d373ed0	0.044737637
73	0x3dea1b7a	0.11431022
74	0x3d91ab06	0.07112698
75	0x3daa8d8e	0.08327781
76	0x3c68595a	0.014181459
77	0x3e64af27	0.2233244
78	0xbcd71dfa	-0.026259411
79	0x3c3e2e59	0.01160773
80	0xbe51d395	-0.20490868
81	0xbe376818	-0.17910802
82	0xbbd1be76	-0.0064008785
83	0xbdc0c508	-0.09412581
84	0x3e853aad	0.2602133
85	0xbd3a97b3	-0.045554828
86	0xb9ec2610	-0.00045041787
87	0xbd91599e	-0.07097171
88	0xbd41a83d	-0.047279585
89	0x3d87f4eb	0.06638511
90	0x3e0c1c04	0.13682562
91	0xbe07555f	-0.1321616
92	0xbe2feb37	-0.17179571
93	0x3dd8dea5	0.10589341
94	0x3d2d9c0a	0.04238514
95	0xbd83189f	-0.064011805
96	0xbd4aa8b5	-0.049477298
97	0x3e27429c	0.16334003
98	0x3d4dae7b	0.050215226
99	0x3d4ba5b6	0.04971858
100	0xbe018ea8	-0.12652075
101	0xbe03d848	-0.12875473
102	0xbe8039b7	-0.25044033
103	0xbe02c7a3	-0.12771468
104	0xbe38e1ad	-0.18054838
105	0x3c85bc60	0.016325176
106	0x39b3609b	0.00034213517
107	0xbdd13ced	-0.10216699
108	0xbcf8fc0e	-0.030393627
109	0x3d9f002d	0.077637054
110	0xbca50768	-0.020145133
111	0xbdddf0be	-0.108369336
112	0x3e01255c	0.12611908
113	0x3e0a1270	0.13483596
114	0x3dc276fd	0.094953515
115	0x3ce6b045	0.028160224
116	0xbd1b3915	-0.037896235
117	0xbcf5bc8c	-0.029997133
118	0x3e8d6879	0.2761877
119	0x3c8481ac	0.016175114
120	0xbdf22e96	-0.11825292
121	0xbe02006f	-0.12695478
122	0xbe208e46	-0.15679273
123	0xbdb9d0dc	-0.0907304
124	0x3dc003fd	0.09375761
125	0x3dd8d0bd	0.10586689
126	0x3d06a035	0.03286763
127	0x3e366daa	0.17815271
128	0xbbb5bedf	-0.0055464352
129	0x3d906a48	0.070515215
130	0x3e1e1a8c	0.15439814
131	0xbd293c54	-0.0413173
132	0x3df5847c	0.1198816
133	0xbd37095b	-0.044686656
134	0x3e1a8068	0.15088046
135	0xbd238ce1	-0.039929274
136	0xbe218e91	-0.15777041
137	0x3e3efa47	0.1865016
138	0x3de7c131	0.11316145
139	0xbe419300	-0.18903732
140	0x3cab8279	0.020936238
141	0xbe213a18	-0.15744817
142	0x3dd48850	0.10377562
143	0x3e5e2261	0.21692802
144	0xbe1369c4	-0.14395815
145	0xbd106a65	-0.035257716
146	0x3d88cbb0	0.06679475
147	0x3de2fb20	0.110830545
148	0x3d625fb1	0.05526704
149	0x3d0b5dc0	0.034024954
150	0x3cfeb849	0.031093733
151	0x3c78d973	0.015188563
152	0x3d0190ce	0.031632237
153	0xbd27313a	-0.04081843
154	0x3e1f91f9	0.15583028
155	0xbe1ed339	-0.15510263
156	0xbdeaaf7d	-0.11459253
157	0xbd0f37d8	-0.034965366
158	0xbda39686	-0.079876944
159	0xbe8eaae6	-0.2786476
160	0x3d395a52	0.04525215
161	0x3cfb14bf	0.030649541
162	0x3d881339	0.066442914
163	0x3ded7459	0.11594457
164	0xbcc4a61e	-0.024004992
165	0xbd8a91f1	-0.06766117
166	0xbd5c3ad4	-0.05376704
167	0xbe1de707	-0.15420161
168	0xbd455659	-0.04817805
169	0xbc60fe3a	-0.013732487
170	0x3d129ad2	0.03579218
171	0xbe43fb5f	-0.19138859
172	0xbdf85652	-0.12125839
173	0x3cd16227	0.025559498
174	0x3e0e465f	0.13894032
175	0x3d250261	0.04028547
176	0xbe23e2be	-0.16004464
177	0xbd979bd8	-0.07402772
178	0x3d46e943	0.0485623
179	0x3e83c63c	0.25737178
180	0x3d033146	0.032029413
181	0x3d3623b3	0.04446764
182	0xbe02e5ab	-0.12782924
183	0xbd07d63e	-0.0331633
184	0x3da5e3c2	0.08100082
185	0xbdfdb841	-0.12388659
186	0x3de1a0a0	0.11016965
187	0xbc9f77b7	-0.019466264
188	0x3da2b6f2	0.0794505
189	0xbe08c3b6	-0.13355908
190	0xbcde263f	-0.027117847
191	0x3d8a6a2e	0.067585334
192	0xbe0af2bb	-0.13569157
193	0xbef6bf26	-0.4819271
194	0x3d3101a5	0.04321446
195	0x3e347821	0.1762395
196	0x3d97fe32	0.07421531
197	0xbe7a5618	-0.24446905
198	0xbd4babe0	-0.04972446
199	0xbc8e0635	-0.017336944
200	0xbe025934	-0.12729341
201	0x3e51d16c	0.20490044
202	0xbd6746d7	-0.056464043
203	0xbca06f76	-0.019584399
204	0xbe773ffc	-0.24145502
205	0xbdd9e0c7	-0.10638576
206	0x3d00c47d	0.031437386
207	0x3e10399d	0.14084478
208	0x3d04b392	0.032397814
209	0xbd54775a	-0.051871635
210	0x3e418e16	0.18901858
211	0xbd7d1741	-0.061789755
212	0xbf022319	-0.50834805
213	0xbc32b176	-0.010906568
214	0x3e2a76ce	0.16646883
215	0xba6078c3	-0.0008562917
216	0xbcedab81	-0.029012443
217	0xbf0b5bec	-0.54437137
218	0xbd6b32be	-0.05742144
219	0xbe4dd36f	-0.20100187
220	0xbe395a16	-0.18100771
221	0x3e298578	0.1655482
222	0x3e096b2d	0.1341979
223	0x3e4df3ae	0.20112488
224	0xbe4d4f41	-0.20049764
225	0x3e19ba24	0.15012413
226	0xbebd4bb0	-0.36971807
227	0x3dbc4995	0.09193722
228	0x3e03f41d	0.1288609
229	0x3e054181	0.13013269
230	0x3dac632e	0.084173545
231	0x3e091eb6	0.13390622
232	0xbc97a0bd	-0.018509263
233	0x3ddce1a3	0.10785224
234	0xbdf206bb	-0.1181769
235	0x3de67b6e	0.11254011
236	0xbcfc1787	-0.030772937
237	0xbdd45258	-0.10367268
238	0xbe1d3a5d	-0.15354295
239	0xbd0c1446	-0.03419902
240	0x3dc72be9	0.09725172
241	0xbd1dd6cf	-0.038534936
242	0x3a76aaca	0.0009409605
243	0xbe4f7d2c	-0.20262593
244	0x3d6abdc2	0.057309873
245	0x3d9f8cb3	0.07790508
246	0x3c235d41	0.009970964
247	0xbe85d010	-0.26135302
248	0xbdc08bc1	-0.09401656
249	0xbe69afd2	-0.22820976
250	0x3c3002f9	0.010742896
251	0x3d921138	0.071321905
252	0xbca97cc6	-0.02068938
253	0x3dd282f1	0.10278881
254	0x3d36ad03	0.04459859
255	0x3c93f431	0.018060775

model.lin2.biases f4 [3, 1, 80]
0	0x3dbe28a3	0.092850946
1	0xbe29897f	-0.16556357
2	0x3d4ca7b8	0.049964637
3	0x3db45ea8	0.08807117
4	0xbda3a91f	-0.07991242
5	0x3e6779b5	0.22605021
6	0x3e5d327a	0.21601287
7	0xbde886ba	-0.11353822
8	0xbd7a930a	-0.061175384
9	0xbe28d8bf	-0.16488932
10	0x3d9d1c3a	0.076713994
11	0xbbd0b2bf	-0.0063689644
12	0xbe02c0b4	-0.12768823
13	0x3e6a193a	0.22861186
14	0x3d84c80f	0.06483471
15	0x3dd1a50c	0.10236558
16	0x3e14022e	0.14453956
17	0xbdf5eefa	-0.12008472
18	0xbe2ae2bf	-0.1668806
19	0x3d930030	0.0717777
20	0x3dbc06ef	0.0918101
21	0x3e712072	0.23547533
22	0xbbb827bf	-0.0056199725
23	0x3e2e8b6c	0.17045373
24	0x3d353861	0.04424322
25	0xbe262622	-0.16225484
26	0xbcb12afa	-0.021626938
27	0x3e83ad11	0.25717977
28	0xbe29cd71	-0.16582276
29	0x3dad6760	0.08466983
30	0x3d8abb64	0.06774023
31	0xbdda97cc	-0.10673484
32	0xbe862b23	-0.26204786
33	0xbe168386	-0.1469861
34	0xbdaa4246	-0.08313422
35	0xbd94eecc	-0.072721094
36	0x3dac9f8d	0.084288694
37	0xbe80e095	-0.25171342
38	0xbdba795a	-0.09105177
39	0xbe067d12	-0.13133648
40	0x3d2b2bd2	0.041789837
41	0x3e25bd0f	0.16185401
42	0xbd5a063e	-0.05322861
43	0x3da7eaf9	0.08199114
44	0xbdc3434c	-0.0953432
45	0x3d38ec96	0.0451475
46	0x3d302523	0.043004166
47	0x3db19444	0.086708575
48	0x3ded29f1	0.11580265
49	0xbda1e863	-0.079056524
50	0xbdc57d3b	-0.096430264
51	0xbe53f54e	-0.20699045
52	0xbe3d8543	-0.18507867
53	0x3e2e107a	0.16998473
54	0xbe18dbcc	-0.14927596
55	0x3d205416	0.03914269
56	0x3d9da669	0.07697756
57	0xbe272e70	-0.16326308
58	0x3d453060	0.048141837
59	0xbcfb3c60	-0.030668437
60	0x3e0d04a2	0.13771299
61	0x3df2cbab	0.11855253
62	0x3d97078f	0.073744886
63	0x3d91e24c	0.07123241
64	0xbcd448f0	-0.025913686
65	0x3d8d6ff2	0.069061175
66	0xbe653007	-0.22381602
67	0xbdd2b500	-0.10288429
68	0x3e73016f	0.23731016
69	0xbd9afdde	-0.075679526
70	0xbdedd659	-0.11613149
71	0xbde4f15e	-0.1117885
72	0x3df29226	0.11844282
73	0x3da65bf4	0.081230074
74	0x3e626480	0.2210865
75	0x3e38f390	0.18061662
76	0x3dc1d531	0.09464491
77	0xbe261607	-0.1621934
78	0xbca5751a	-0.02019744
79	0x3d802073	0.06256189
80	0xbe123c71	-0.14280869
81	0x3db45a26	0.08806257
82	0x3d6a12db	0.05714689
83	0xbdab03cf	-0.08350336
84	0x3df9404b	0.12170466
85	0x3e3f162f	0.18660806
86	0x3e63138b	0.22175424
87	0xbddab15f	-0.10678362
88	0x3e147bf1	0.14500405
89	0x3e143d41	0.14476492
90	0xbdaf2f11	-0.08553899
91	0x3e33e4c4	0.17567736
92	0x3db0966e	0.08622442
93	0xbc8473cd	-0.0161685
94	0xbd65821b	-0.05603228
95	0x3e1f8527	0.15578137
96	0x3d4f630f	0.05063158
97	0xbdd91fc4	-0.10601762
98	0xbe3b17c7	-0.18270789
99	0xbc226b3b	-0.009913261
100	0xbe00e99a	-0.12589112
101	0x3e2a101b	0.16607706
102	0xbdbe1f2d	-0.0928329
103	0x3dd5e70a	0.10444458
104	0xbe31c2a6	-0.17359409
105	0xbdf43500	-0.119241714
106	0x3d74b6e1	0.05974472
107	0xbe2e4263	-0.17017512
108	0x3e039bb8	0.1285237
109	0xbe04e296	-0.1297706
110	0xbe1856bd	-0.14876838
111	0x3d1dc29e	0.03851568
112	0x3b7780dd	0.0037766017
113	0xbe223af5	-0.15842803
114	0xbe5233f6	-0.20527634
115	0xbd184677	-0.037176576
116	0x3e10d8c8	0.14145195
117	0xbd310ed4	-0.04322703
118	0x3e1dfaa7	0.15427648
119	0x3e32c8b8	0.1745938
120	0x3e7321d4	0.23743373
121	0x3e4b4407	0.19850169
122	0xbdd600d8	-0.1044938
123	0x3d769d7f	0.060208794
124	0x3e0e4bed	0.13896151
125	0xbdad588f	-0.08464157
126	0xbe803c30	-0.2504592
127	0xbdcccae0	-0.09999633
128	0x3e440f59	0.1914648
129	0xbd9bf8b2	-0.07615794
130	0x3e272300	0.16321945
131	0xbd3af42e	-0.045643024
132	0x3dc9585d	0.09831307
133	0x3e2cb76c	0.16866845
134	0x3deeedff	0.11666488
135	0x3d44cc5c	0.048046455
136	0x3ded39b7	0.11583274
137	0x3e3929d2	0.1808236
138	0x3b979525	0.0046259337
139	0xbe6c5aed	-0.2308156
140	0xbde47c46	-0.11156516
141	0x3e2431a9	0.16034569
142	0xbd19e315	-0.037570078
143	0x3c2b43f9	0.010453218
144	0xbe19996a	-0.14999929
145	0x3ccc407f	0.024933098
146	0x3dad49b3	0.08461323
147	0xbda475a4	-0.08030251
148	0xbdddbf1b	-0.10827466
149	0x3e9c0f18	0.30480266
150	0xbbf914ee	-0.007601372
151	0x3cfd314c	0.030907296
152	0x3e0424db	0.12904684
153	0xbeac7615	-0.3368384
154	0xbe8d4f19	-0.2759941
155	0x3e3c5304	0.18391043
156	0x3e2e4644	0.17018992
157	0xbe09c3a4	-0.13453537
158	0x3e59cfec	0.21270722
159	0xbd804e96	-0.06264989
160	0x3d7cde53	0.061735462
161	0xbd8068a8	-0.062699616
162	0x3de3f3c4	0.11130479
163	0x3d9dbcb7	0.0770201
164	0xbe1933e8	-0.14961207
165	0xbe1b7809	-0.15182509
166	0x3daad816	0.08341996
167	0x3d8d125d	0.06888268
168	0xbdbd2181	-0.09234906
169	0x3c7d446a	0.015458206
170	0xbda6a560	-0.081370115
171	0x3e029e89	0.12755789
172	0xbdba0525	-0.090830125
173	0xbdff8c27	-0.12477904
174	0x3dfd23c2	0.12360336
175	0xbe2032ed	-0.15644427
176	0xbdf2c27d	-0.11853502
177	0x3d9d94e4	0.07694414
178	0x3e5a4576	0.2131556
179	0xbe3c83c4	-0.1840964
180	0x3e5d418f	0.2160704
181	0x3d8c5796	0.06852643
182	0x3d12b2de	0.035815112
183	0xbd809032	-0.06277503
184	0xbd80aa10	-0.06282437
185	0xbd1618e5	-0.036644835
186	0xbd5001d2	-0.050782986
187	0x3cc57a6e	0.02410623
188	0xbd88faab	-0.06688436
189	0x3e4d212d	0.20032187
190	0x3e2de44a	0.16981617
191	0xbc4fd217	-0.012684367
192	0x3d93c80d	0.07215891
193	0x3e66780a	0.22506729
194	0x3e166e14	0.14690429
195	0xbd8e427d	-0.069462754
196	0xbe0dc56e	-0.13844845
197	0x3dfefd20	0.124506235
198	0xbcecea52	-0.028920326
199	0xbe4a85f8	-0.19777668
200	0x3d3ef176	0.046616994
201	0x3dcbf1e0	0.09958243
202	0x3cae6f34	0.02129326
203	0x3e1618ea	0.14657941
204	0x3d6b7ccf	0.057492074
205	0x3dcf6eb3	0.10128536
206	0x3c7f7c4f	0.015593602
207	0x3bf532ec	0.007482877
208	0xbe5e7a01	-0.21726228
209	0xbdd3ec59	-0.10347814
210	0xbda9d002	-0.082916275
211	0xbdd2fbef	-0.10301959
212	0xbd482f79	-0.0488734
213	0x3e8440ce	0.25830692
214	0xbdd538d9	-0.104112335
215	0x3e3ade03	0.18248753
216	0xbd83194c	-0.06401309
217	0x3d3df1b8	0.0463731
218	0x3da83067	0.08212357
219	0xbe6b2476	-0.22963127
220	0xbdf9f51c	-0.12204954
221	0xbe1851a5	-0.14874895
222	0xbb77a778	-0.0037789028
223	0xbd459027	-0.048233178
224	0xbd5c2aff	-0.05375194
225	0x3df8c991	0.12147821
226	0x3de9b7ab	0.11411985
227	0x3e164a4a	0.14676777
228	0xbde63001	-0.11239625
229	0x3ce42bcd	0.027852917
230	0x3e21682e	0.15762398
231	0x3d378e44	0.04481341
232	0xbe172550	-0.14760327
233	0xbdb9d322	-0.090734735
234	0xbe0813ef	-0.13288854
235	0x3de334f4	0.110940844
236	0x3d8c6ab4	0.068562895
237	0xbe0b4c9d	-0.13603444
238	0xbb1fe434	-0.0024397494
239	0xbdb2b748	-0.087263644

model.lin3.weights f4 [3, 80, 120]
0	0xbc999004	-0.01874543
1	0xbe3fbe99	-0.18725051
2	0x3ce2d95d	0.027691538
3	0xbca75b1e	-0.02042919
4	0x3c70bffd	0.014694211
5	0x3e6894dd	0.22713037
6	0x3d8d4b84	0.06899169
7	0xbe015c7d	-0.12632938
8	0x3e06f211	0.13178279
9	0xbd196dbd	-0.03745817
10	0x3ea088a9	0.31354263
11	0x3e32548e	0.17415068
12	0xbd4bc74f	-0.049750622
13	0x3cbff0c9	0.023430245
14	0x3e18c8d5	0.14920361
15	0xbcb2e07e	-0.021835562
16	0x3c4ac562	0.012376161
17	0xbd2fe1b2	-0.04293985
18	0x3daae347	0.08344131
19	0xbc847134	-0.01616726
20	0x3cc9089a	0.024540234
21	0x3e33b7be	0.17550561
22	0x3dbf74fc	0.09348485
23	0x3dae825e	0.08520959
24	0xbb026cd8	-0.0019901302
25	0x3e821177	0.2540395
26	0xbce47ddd	-0.027892048
27	0xbc117296	-0.008877417
28	0x3da2e9a0	0.07954717
29	0x3df78080	0.12085056
30	0x3d21fdc6	0.039548658
31	0x3ed10a2e	0.4082808
32	0xbdc82014	-0.097717434
33	0x3ccdf64f	0.025141863
34	0x3cfe5feb	0.031051597
35	0xbd4b29e5	-0.0496005
36	0x3e6818bd	0.22665687
37	0x3be43a4b	0.006964957
38	0x3da57e70	0.08080757
39	0x3cc8c7a2	0.024509255
40	0xbcad5150	-0.021156937
41	0xbe0b7f92	-0.13622883
42	0x3e2fe36a	0.17176595
43	0x3d651250	0.055925667
44	0xbca4cfec	-0.020118676
45	0x3db20b1a	0.08693524
46	0x3e6cd715	0.23128922
47	0x3cca6123	0.024704522
48	0x3e181936	0.14853367
49	0xbb4172fe	-0.0029518004
50	0x3ab79182	0.0014005157
51	0xbde0edc1	-0.10982848
52	0xb9ed2e51	-0.0004523867
53	0xbdc95001	-0.09829713
54	0x3dd71cd3	0.10503545
55	0xbdd9ef25	-0.10641316
56	0x3e6286fa	0.22121802
57	0xbdccf8b0	-0.10008371
58	0x3e46d126	0.19415721
59	0xbdd50c6f	-0.10402762
60	0xbd9e43a3	-0.077277444
61	0x3c4700c7	0.012146181
62	0x3d1166c1	0.035498384
63	0xbd3f03fd	-0.046634663
64	0xbc8dee5c	-0.017325573
65	0x3df3571a	0.11881848
66	0x3d9f37e8	0.07774335
67	0xbd7ec485	-0.062199134
68	0x3de08b50	0.10964072
69	0x3c788051	0.015167312
70	0xbdcf37a6	-0.10118036
71	0xbcac2951	-0.021015795
72	0xbd1ff9df	-0.039056655
73	0x3dc46bd6	0.095908806
74	0x3ca5816b	0.020203313
75	0xbd845e26	-0.0646327
76	0x3d0b079a	0.033942796
77	0x3cb8c971	0.022556992
78	0xbd0d78b5	-0.034538943
79	0xbe08a338	-0.13343513
80	0xbbeda91f	-0.007252827
81	0xbd8dfcec	-0.06933007
82	0xbdd5dbd9	-0.10442323
83	0xbdf0f86f	-0.11766135
84	0x3da2e8ea	0.07954581
85	0x3e1fb1ff	0.15595244
86	0x3d8e207a	0.06939788
87	0x3e491627	0.19637357
88	0x3db8bcb7	0.090203695
89	0xbd2945b3	-0.041326236
90	0x3e11f0b7	0.14251982
91	0xbd332a09	-0.04374126
92	0xbdcce75a	-0.10005064
93	0xbd62f905	-0.055413265
94	0x3cbd01df	0.023072181
95	0xbd2c4fef	-0.042068418
96	0xbd9e3b59	-0.077261634
97	0x3e086e97	0.13323437
98	0xbde15a31	-0.11003531
99	0xbc23e258	-0.010002695
100	0x3e8244b2	0.25443035
101	0x3c518344	0.012787644
102	0x3d807b98	0.06273574
103	0xbd700f7d	-0.05860852
104	0x3d615e29	0.05502144
105	0xbd7347a0	-0.05939448
106	0x3d319b69	0.0433611
107	0xbd841f31	-0.06451262
108	0x3d935057	0.07193058
109	0x3dde950a	0.10868271
110	0xba84d234	-0.0010133446
111	0x3dd6487f	0.10463046
112	0x3d88de2a	0.066829994
113	0xbb92e6e9	-0.004483093
114	0x3d26cbde	0.040721767
115	0xbd8f182b	-0.069870315
116	0x3e517fe3	0.20458941
117	0x3d902574	0.070383936
118	0x3e38953e	0.18025681
119	0x3d97609c	0.07391474
120	0xbddca788	-0.107741416
121	0x3b085453	0.0020802214
122	0xbd2d6517	-0.042332735
123	0xbd0b98bf	-0.034081217
124	0x3d20c778	0.03925273
125	0x3e0ec1b8	0.13941085
126	0x3d03d487	0.032185104
127	0xbd9baa12	-0.07600798
128	0xbe564176	-0.20923409
129	0xbd03575e	-0.03206574
130	0xbef32367	-0.47487947
131	0xbe126a44	-0.1429835
132	0x3db19288	0.08670527
133	0x3d84ea42	0.06489994
134	0xbd5df4ca	-0.054188527
135	0x3e05b649	0.13057818
136	0xbe1943f3	-0.14967327
137	0xbca4bd6c	-0.020109855
138	0xbcde3f4d	-0.027129794
139	0xbe8b1b61	-0.27169326
140	0xbdda07f0	-0.10646045
141	0xbe2a51b2	-0.16632727
142	0xbe620b81	-0.22074701
143	0xbd8d6505	-0.069040336
144	0xbcae44cd	-0.021273041
145	0xbee57510	-0.44815874
146	0x3d203cbe	0.03912043
147	0xbf4645ed	-0.7745045
148	0xbda4b646	-0.080425784
149	0xbd9ab586	-0.07554154
150	0x3e2d9aa1	0.16953517
151	0xbe855cea	-0.2604745
152	0x3dcc69cd	0.099811174
153	0x3de03294	0.10947147
154	0x3c3eb962	0.011640878
155	0xbd61c559	-0.055119846
156	0xbee72f7c	-0.45153415
157	0x3c50db6e	0.012747629
158	0xbe9a702c	-0.30163705
159	0xbe75ef34	-0.2401703
160	0xbe50e02e	-0.20398018
161	0x3e3a08af	0.18167375
162	0xbf0876e2	-0.533064
163	0x3b72ec7f	0.0037067232
164	0x3c70ac7d	0.014689562
165	0x3e2ac10e	0.16675207
166	0xbe57075c	-0.20998901
167	0x3b3debb9	0.0028979613
168	0x3dcf831c	0.10132429
169	0xbe02a26b	-0.1275727
170	0x3caef7ef	0.021358458
171	0xbdb618cc	-0.088914484
172	0x3e5c9646	0.215417
173	0x3dac9fdd	0.08428929
174	0x3e27bf91	0.1638167
175	0x3dd64cda	0.10463877
176	0xbf5264ab	-0.8218486
177	0xbca70314	-0.02038721
178	0xbf0e7bbf	-0.5565757
179	0x3c294e88	0.010333665
180	0x3c9354d2	0.017984781
181	0xbda0334b	-0.07822283
182	0x3c19a088	0.009376653
183	0x3e43d5b7	0.19124494
184	0x3d573fe5	0.05255117
185	0x3e2709de	0.16312358
186	0xbddce6e1	-0.10786224
187	0x3e823174	0.25428355
188	0xbd9cbe48	-0.07653481
189	0xbce59bd0	-0.028028399
190	0x3df224c9	0.118234225
191	0xbe02fb87	-0.12791263
192	0xbddc0b4a	-0.10744341
193	0xbd79f83a	-0.061027743
194	0xbc883df2	-0.0166311
195	0xbc0f8e21	-0.0087619135
196	0xbe464712	-0.19363049
197	0x3e21d539	0.15803994
198	0xbde1d8a9	-0.11027653
199	0x3dfd77f6	0.12376396
200	0x3e28e67a	0.1649417
201	0xbdbfdce2	-0.09368302
202	0x3e0dd965	0.1385246
203	0xbde305c5	-0.11085085
204	0xbf3dae67	-0.7409424
205	0xbd68e38f	-0.05685764
206	0xbe8d75b9	-0.27628878
207	0xbeca992f	-0.39569995
208	0x3d9ec76b	0.0775288
209	0xbe00c058	-0.12573373
210	0xbe2db481	-0.16963388
211	0x3d4ffae6	0.050776385
212	0xbdd18035	-0.10229532
213	0x3e6f39cd	0.23361893
214	0x3e1c2bb3	0.15251045
215	0xbdc217ba	-0.09477182
216	0xbc2554dd	-0.010091034
217	0x3dc16c7d	0.094445206
218	0xbd9bfa95	-0.07616154
219	0x3e29b5fb	0.16573326
220	0x3c689630	0.014195964
221	0x3d669752	0.056296654
222	0xbf69645b	-0.91168755
223	0x3ecc4967	0.39899752
224	0xbd0c9573	-0.034322213
225	0x3d9770e9	0.07394583
226	0xbdba6915	-0.09102074
227	0x3e097079	0.13421811
228	0xbdb8d02a	-0.09024079
229	0x3dfb0d6c	0.122584194
230	0x3c7bf0f2	0.01537727
231	0x3dec9b6b	0.11553081
232	0x3e2cea7d	0.16886325
233	0x3d89e249	0.067326136
234	0x3d6c6620	0.05771458
235	0x3d1a42ae	0.037661247
236	0xbc5eca4e	-0.013598038
237	0xbe2d7103	-0.16937642
238	0x3e1d49e5	0.1536022
239	0xbdc28733	-0.094984435
240	0x3d3dec5c	0.046367988
241	0x3e31a472	0.17347887
242	0x3dfb5b9d	0.12273333
243	0xbc719d62	-0.014746996
244	0xbb0c791f	-0.0021434498
245	0xbe1aebb9	-0.15128984
246	0xbe267dfb	-0.16258995
247	0x3dcd9dec	0.10039887
248	0xbd49361d	-0.049123872
249	0x3dbc7f56	0.09203975
250	0xbe6e2e0b	-0.23259751
251	0xbe7fb777	-0.2497233
252	0xbd211f22	-0.03933633
253	0xbd266b97	-0.04062995
254	0x3df1892a	0.1179374
255	0xbd8b8fb1	-0.06814516

model.lin3.biases f4 [3, 1, 120]
0	0x3dd3e2da	0.10346003
1	0xbca174ba	-0.01970898
2	0x3e0644be	0.1311216
3	0x3df0f625	0.11765698
4	0xbdaedc62	-0.085381284
5	0x3d2ced4f	0.042218503
6	0xbd969b62	-0.07353856
7	0x3e13a1cb	0.14417188
8	0x3de91c71	0.11382378
9	0x3d1b31bc	0.037889227
10	0xbd99341e	-0.07480644
11	0xbd283748	-0.041068345
12	0xbd7cdf7c	-0.06173657
13	0x3c19bd66	0.009383535
14	0xbc3d81bc	-0.011566576
15	0xbd8856ae	-0.06657158
16	0x3e05eca1	0.13078548
17	0x3db1e722	0.08686663
18	0x3def1c72	0.116753474
19	0x3ddf9495	0.10917012
20	0x3debaf56	0.11508052
21	0xbd94f1e5	-0.072727
22	0xbd6d216c	-0.0578932
23	0xbd67b5b7	-0.05656978
24	0x3ca4af35	0.020103076
25	0xbb4784ce	-0.0030444148
26	0xbdbdf05d	-0.09274361
27	0x3dd36a50	0.10323012
28	0x3dfbff0d	0.123045065
29	0x3e3c99db	0.18418066
30	0x3dbd5d0d	0.09246264
31	0xbcfaa338	-0.030595407
32	0xbdb63634	-0.08897057
33	0x3dbd3e7f	0.09240436
34	0x3dc1f102	0.09469797
35	0xbe0bcae2	-0.13651612
36	0xbe217cf8	-0.15770328
37	0xbd4a129e	-0.04933416
38	0x3d9be588	0.07612139
39	0xbe295008	-0.16534436
40	0x3e2cfb68	0.16892779
41	0xbb89725b	-0.0041945404
42	0x3d494199	0.049134824
43	0x3dc45d2e	0.09588085
44	0x3d5b1d0d	0.0534945
45	0x3d9308e7	0.07179432
46	0x3c973bc7	0.018461121
47	0x3d89ac87	0.0672236
48	0x3d185b77	0.037196603
49	0x3d86d333	0.06583252
50	0xbdb35969	-0.08757288
51	0xbdde74dd	-0.10862134
52	0xbe0a3354	-0.13496143
53	0x3d1d219f	0.03836214
54	0x3c341f74	0.010993827
55	0xbd0f27c3	-0.03495003
56	0xbda89c99	-0.08232994
57	0xbc757f5a	-0.014983976
58	0x3db0864d	0.08619366
59	0xbdc2c89e	-0.09510921
60	0x3ccb65e3	0.024828857
61	0x3c7538d7	0.014967165
62	0xbd94fbfd	-0.072746255
63	0xbe0d3803	-0.13790898
64	0x3d3a5aac	0.045496628
65	0x3def54cf	0.11686098
66	0xbdc33b6b	-0.095328175
67	0xbc316106	-0.010826355
68	0x3c5f2783	0.01362026
69	0x3dd95ee9	0.10613806
70	0x3da76512	0.081735745
71	0x3dc86623	0.09785106
72	0x3d99a944	0.07502988
73	0x3d803b40	0.06261301
74	0x3d2aa6fd	0.04166316
75	0x3cf42e98	0.029807374
76	0xbddc6038	-0.1076054
77	0xbc735c9e	-0.014853625
78	0xbde08474	-0.109627634
79	0x3cafb4fd	0.021448607
80	0x3d6c00c9	0.057617936
81	0xbdcfa65f	-0.10139155
82	0xbe047a71	-0.12937333
83	0x3defdc65	0.11711959
84	0xbca85a33	-0.020550823
85	0x3d7f1e9b	0.062285047
86	0x3ca9796b	0.02068778
87	0xbdc0f87a	-0.09422393
88	0xbc8aabae	-0.016927566
89	0x3d60cd04	0.054883018
90	0xbdbaeff9	-0.091278024
91	0x3d815b12	0.063161984
92	0xbd889f1f	-0.06670975
93	0x3d6409a6	0.055673264
94	0xbd1e0331	-0.038577262
95	0xbcb6e042	-0.022323731
96	0x3cf7140d	0.030160928
97	0xba0e64e5	-0.00054319046
98	0xbbd4e7ce	-0.00649736
99	0xbd85676b	-0.06513866
100	0x3d420ea9	0.047377262
101	0x3da7b286	0.081883475
102	0x3d9feb5a	0.078085616
103	0x3e2e12ab	0.16999309
104	0xbd108663	-0.03528441
105	0xbd72543c	-0.059162363
106	0x3dd749af	0.10512101
107	0x3e1e7b0b	0.15476625
108	0xbcbe4779	-0.02322744
109	0x3e05ca99	0.13065566
110	0x3e263aad	0.1623332
111	0x3cd77b08	0.026303783
112	0x3cbbe7e9	0.022937732
113	0x3cdd1230	0.026986212
114	0x3e1d7c8e	0.15379545
115	0x3cfb7c5b	0.030698946
116	0x3d98f95d	0.07469437
117	0xbd380028	-0.044922024
118	0x3d4e5855	0.05037721
119	0xbdd0ce20	-0.10195565
120	0xbbeecea3	-0.0072878166
121	0x3c71f830	0.014768645
122	0xbd187984	-0.03722526
123	0xbb71ff7f	-0.003692597
124	0xbbe00702	-0.006836773
125	0x3d8cc99b	0.06874391
126	0x3da07afd	0.07835958
127	0x3e283558	0.16426599
128	0x3c8848f2	0.016636346
129	0xbb959785	-0.0045651817
130	0xbd999250	-0.0749861
131	0x3deb07d5	0.11476103
132	0x3d5fe3c5	0.054660577
133	0xbdbedcdb	-0.093194686
134	0x3d8a1e05	0.06744007
135	0xbdc6d449	-0.09708459
136	0x3db37f2f	0.08764493
137	0x3b429709	0.0029692075
138	0x3e022dfe	0.12712857
139	0xbc0dd605	-0.008656983
140	0xbad40b80	-0.0016177744
141	0xbd431c99	-0.047634695
142	0x3e56b990	0.20969224
143	0xbbe151be	-0.0068761995
144	0x3de3b5ae	0.11118637
145	0x3dfaad77	0.12240117
146	0x3e4cd533	0.20003204
147	0x3d9334f2	0.07187833
148	0xbcdde005	-0.02708436
149	0xbd46cb80	-0.048533916
150	0xbe046718	-0.12929952
151	0xbddc93c0	-0.107703686
152	0x3d7a1ec0	0.06106448
153	0x3dab0b30	0.08351743
154	0xbcbc954d	-0.02302041
155	0xbd885f3a	-0.06658788
156	0x3e46783b	0.19381802
157	0x3c809ec1	0.0157007
158	0xbe32fc2a	-0.17479005
159	0x3e2341f6	0.15943131
160	0xbe26cfcb	-0.16290204
161	0xbd6f1787	-0.058372047
162	0xbe00bce8	-0.12572062
163	0xbda24d9f	-0.07924961
164	0xbd41c465	-0.047306437
165	0x3ea7a742	0.32744795
166	0x3e24dd0a	0.16099945
167	0xbda516c1	-0.080609806
168	0x3cc35d76	0.023848277
169	0xbdad3147	-0.084566645
170	0xbd2545c1	-0.040349726
171	0xbdfaf822	-0.12254359
172	0x3debab3e	0.11507271
173	0x3dc6f040	0.09713793
174	0xbde1123d	-0.10989807
175	0xbe14a0ad	-0.14514418
176	0xbcbeda4f	-0.023297457
177	0xbcdbd3ac	-0.026834331
178	0xbdb720c3	-0.08941796
179	0xbd8f55b1	-0.06998766
180	0x3dc52ba5	0.09627465
181	0x3c9a9d4a	0.01887383
182	0xbd10e482	-0.035374172
183	0xbc9e086b	-0.019291123
184	0xbd179497	-0.03700694
185	0xbdede57d	-0.11616037
186	0x3ce7a4a2	0.028276745
187	0x3c9b193f	0.018932937
188	0x3b2fa274	0.002679971
189	0x3c397b24	0.011320863
190	0xbda68e4f	-0.08132612
191	0xbd162c9a	-0.03666363
192	0x3dc171b7	0.094455175
193	0x3e1537f3	0.14572124
194	0x3d8a735e	0.06760286
195	0x3d196709	0.037451778
196	0x3db74fdf	0.08950781
197	0xbdb7fd4e	-0.08983861
198	0xbca29f64	-0.019851394
199	0xbd416ee9	-0.047224913
200	0x3e0ba556	0.1363729
201	0x3d2cb377	0.04216334
202	0x3dbe4548	0.09290558
203	0xbe04a2c9	-0.12952723
204	0xbd71ffae	-0.059081726
205	0xbddad2aa	-0.10684712
206	0x3e5bf813	0.21481352
207	0x3e125a39	0.1429223
208	0x3d080578	0.03320834
209	0x3dc6726a	0.096897915
210	0x3cc5a430	0.024126142
211	0x3e117bb8	0.14207351
212	0xbddb1e30	-0.10699117
213	0x3e042b62	0.12907174
214	0xbdccc1da	-0.09997912
215	0x3e0e994f	0.1392567
216	0xbe2296b7	-0.15877806
217	0x3d890bb5	0.06691686
218	0x3d2dddb9	0.04244778
219	0x3caecfef	0.021339385
220	0xbc8ea38f	-0.017411975
221	0xbd05547d	-0.032551277
222	0x3e3a0b23	0.18168311
223	0x3dd05d6d	0.101740696
224	0x3d863067	0.06552201
225	0x3da1f346	0.07907729
226	0x3c8a4c89	0.016882198
227	0xbe0e3499	-0.13887252
228	0x3e1dcff2	0.15411356
229	0x3d7d3a27	0.061823037
230	0x3dde192d	0.10844646
231	0xbd6562ad	-0.056002308
232	0xbd967a31	-0.07347525
233	0xbd891114	-0.066927105
234	0xbd63da75	-0.05562826
235	0x3c564370	0.013077602
236	0xbd059dc8	-0.032621175
237	0x3caffd77	0.021483166
238	0x3c706819	0.014673256
239	0xbcd644d5	-0.026155869
240	0x3d8deea2	0.06930281
241	0xbdb57c7e	-0.088616356
242	0x3df760f0	0.12079036
243	0x3e156cbc	0.1459226
244	0x3d8ecfe9	0.069732495
245	0xbddbe829	-0.107376404
246	0x3d308ca4	0.043102875
247	0x3c62a2ad	0.01383273
248	0xbda65811	-0.08122266
249	0x3cf7a17b	0.030228367
250	0xbdb7ada0	-0.08968663
251	0x3e85a63f	0.26103398
252	0xbd6ce16b	-0.057832163
253	0x3c41c395	0.011826416
254	0x3d46b785	0.04851486
255	0x3d9f44f9	0.07776827

model.lin4.weights f4 [3, 120, 40]
0	0x3d81ccb7	0.063378744
1	0xbd1dbc37	-0.038509574
2	0x3d9711ae	0.07376419
3	0xbd2133dd	-0.0393561
4	0xbd34b8a8	-0.044121414
5	0xbb8cfda2	-0.0043026963
6	0x3e2d3797	0.16915737
7	0x3d06901b	0.032852273
8	0xbd993781	-0.0748129
9	0x3d5cb913	0.053887438
10	0x3e18de32	0.14928511
11	0xbca1c090	-0.019745141
12	0x3da535ce	0.08066903
13	0x3d821f66	0.06353645
14	0xbdabb551	-0.08384193
15	0x3e020eeb	0.12701003
16	0x3d906f8a	0.070525244
17	0xbd8689eb	-0.065692745
18	0xbde6d5c4	-0.11271241
19	0xbd4bec02	-0.04978562
20	0x3d74d675	0.059774835
21	0x3c3d8d2b	0.011569302
22	0xbda3adbd	-0.07992122
23	0x3d45480b	0.04816441
24	0xbd120cba	-0.03565667
25	0x3d87cfef	0.06631457
26	0x3d9c90e3	0.076448224
27	0x3cc51833	0.02405939
28	0xbd8c84f8	-0.06861299
29	0x3c18f0a7	0.00933472
30	0xbc25aba2	-0.010111721
31	0x3b5a1de5	0.0033281979
32	0xbd854017	-0.06506365
33	0xbdbab729	-0.09116966
34	0x3dc59fbf	0.0964961
35	0x3db24073	0.08703699
36	0x3d8e5236	0.06949274
37	0x3d9f42a4	0.077763826
38	0x3e0df4a9	0.13862862
39	0xbc2c4e2a	-0.010516683
40	0x3bd881cc	0.00660727
41	0xbd7926bd	-0.06082796
42	0xbcf0ae4c	-0.029379986
43	0x3d019788	0.031638652
44	0x3da4c2d6	0.080449745
45	0x3d91f33b	0.07126471
46	0xbb81bf46	-0.003959569
47	0x3d9431bc	0.072360486
48	0xbca8f69f	-0.02062541
49	0xbc61dbe4	-0.013785336
50	0xbe112c07	-0.14176951
51	0x3e4aa41f	0.1978917
52	0x3df73c3f	0.12072038
53	0x3ceabfb8	0.028655872
54	0x3d17fdcf	0.037107285
55	0x3a66ecbd	0.00088090805
56	0x3d1cbb9f	0.038264867
57	0xbddf269e	-0.108960375
58	0x3dc7308a	0.09726055
59	0x3d76645b	0.0601543
60	0x3c1d6458	0.009606443
61	0x3d7907c5	0.060798425
62	0x3d0c46d9	0.034247253
63	0x3d50dff8	0.050994843
64	0x3d1f9a7b	0.038965683
65	0x3c99dcd2	0.018782053
66	0xbd8da49b	-0.069161616
67	0xbdd2876f	-0.10279738
68	0x3df7cf9e	0.12100147
69	0x3d61e006	0.055145286
70	0xbd725c56	-0.05917009
71	0x3d087fee	0.03332513
72	0x3e67ebee	0.22648594
73	0x3da03f24	0.07824543
74	0x3c27dc18	0.0102453455
75	0x3dad988a	0.0847636
76	0xbd1bef4c	-0.03807001
77	0xbd018474	-0.031620458
78	0x3bf763b1	0.007549726
79	0x3d15bf9a	0.03655968
80	0x3d853e2c	0.06505999
81	0x3dc710ea	0.09720023
82	0x3d29ce9e	0.04145681
83	0x3d8e87d5	0.06959502
84	0xbd399710	-0.04531008
85	0x3dedf843	0.11619618
86	0xbd567671	-0.05235905
87	0x3dced2ce	0.100988016
88	0x3dba8aa6	0.09108476
89	0x3e1677d3	0.14694147
90	0x3c22d5df	0.009938686
91	0x3c64b5e9	0.013959386
92	0x3e05051c	0.1299023
93	0x3dad92e5	0.084752835
94	0x3d90bafc	0.070669144
95	0x3dcb7a3b	0.09935423
96	0x3da89759	0.08231992
97	0x3d83fbb7	0.06444495
98	0xbdee0bd5	-0.116233505
99	0x3d4d504f	0.050125416
100	0xbceb211d	-0.028702313
101	0x3c788955	0.015169461
102	0x3d40c81d	0.047065843
103	0x3dbf10da	0.09329386
104	0x3db8b683	0.09019186
105	0x3da35247	0.079746775
106	0x3c9afc0d	0.018919015
107	0xbda662da	-0.08124323
108	0x3cbe9d59	0.023268389
109	0x3e45249d	0.19252248
110	0x3ce0d701	0.027446272
111	0x3cbc618f	0.022995738
112	0x3d29c3cb	0.04144649
113	0x3cc038ba	0.02346455
114	0xbcd80903	-0.026371485
115	0x3d84f3e1	0.06491829
116	0xbe7ab5a5	-0.24483354
117	0x3d5e1e06	0.05422785
118	0xbe668904	-0.22513205
119	0x3d114661	0.03546751
120	0x3d8651f3	0.06558599
121	0x3d25acae	0.040447883
122	0x3ceab904	0.028652675
123	0x3de860f8	0.1134662
124	0x3d68e029	0.0568544
125	0x3d78f2d1	0.060778443
126	0xbc880ec1	-0.016608598
127	0xbd4e8b0f	-0.050425585
128	0x3e0ef70e	0.13961431
129	0xbddbd10a	-0.107332304
130	0xbe45f497	-0.19331585
131	0xbd9dd9ba	-0.07707544
132	0xbdb50d2e	-0.088404045
133	0x3d0b5444	0.03401591
134	0xbd90c016	-0.070678875
135	0x3d90027e	0.07031725
136	0x3d07899c	0.03309022
137	0x3dda90a2	0.10672118
138	0x3dbfa3fc	0.093574494
139	0xbdc58c16	-0.0964586
140	0xbdb29654	-0.08720079
141	0x3d947390	0.07248604
142	0x3cc9558f	0.02457693
143	0xbdda9def	-0.10674655
144	0x3de011c5	0.10940889
145	0x3db52b90	0.088461995
146	0x3b1e87b7	0.002418978
147	0x3dd287e8	0.10279828
148	0x3dba39c1	0.09093047
149	0xbb805eab	-0.0039175353
150	0x3d235862	0.03987921
151	0x3c686c7b	0.01418602
152	0x3ddbc0b4	0.107301146
153	0xbc82e59b	-0.015978625
154	0xbdb8b34e	-0.09018575
155	0xbe041e3d	-0.1290216
156	0xbe33e7c0	-0.17568874
157	0x3dc81bf6	0.09770958
158	0xbd870521	-0.06592775
159	0x3d3dbdbf	0.046323534
160	0x3dea8195	0.11450497
161	0x3e10967c	0.14119905
162	0xbdb37c1c	-0.08763906
163	0x3e5c8091	0.21533419
164	0x3e3f457f	0.18678854
165	0x3b8330a5	0.0040036016
166	0x3e474f38	0.19463813
167	0x3e92bf26	0.2866146
168	0x3db489fb	0.0881538
169	0xbdd7a130	-0.10528791
170	0x3de5c0ad	0.112183906
171	0xbd9bd691	-0.07609285
172	0xbea97ef1	-0.3310466
173	0xbba07bbb	-0.0048975623
174	0x3d62461b	0.05524264
175	0x3e3e666b	0.18593757
176	0xbd0eb6ac	-0.03484218
177	0x3e4bedd3	0.19914941
178	0x3d3b4e9e	0.045729272
179	0x3b3e7192	0.0029059392
180	0xbd974bfe	-0.07387541
181	0xbdebe184	-0.11517623
182	0x3d592619	0.05301485
183	0x3e669ced	0.225208
184	0x3c1206d0	0.008912757
185	0xbbcb4a15	-0.0062038996
186	0xbc84acb7	-0.016195638
187	0xbda26f73	-0.079314135
188	0xbdd5bfae	-0.104369506
189	0xbe91dad9	-0.2848728
190	0x3e157b96	0.14597926
191	0xbe949310	-0.2901845
192	0xbed7bcc4	-0.42136204
193	0xbd0485cd	-0.032354165
194	0x3db72f74	0.08944598
195	0x3d9d7b19	0.07689495
196	0x3e6e98db	0.23300497
197	0x3b680df1	0.00354087
198	0x3d479914	0.04872997
199	0xbd0df663	-0.0346588
200	0x3d1b1e94	0.03787096
201	0xbdd16494	-0.10224262
202	0x3d8c9e9b	0.06866189
203	0x3dc943a3	0.09827354
204	0xbdacd18c	-0.084384054
205	0xbd9f4b36	-0.07778017
206	0xbe86ce13	-0.26329097
207	0xbd616b21	-0.055033807
208	0x3dc51938	0.09623951
209	0x3ca262e3	0.019822543
210	0x3d4566df	0.04819381
211	0xbdab89cf	-0.08375894
212	0xbd1403c2	-0.036136396
213	0x3da0c42a	0.07849915
214	0x3c863aec	0.016385518
215	0xbd0458df	-0.032311317
216	0xbd902ff8	-0.07040399
217	0x3daf5d14	0.08562675
218	0x3b25f295	0.0025321592
219	0xbcabf523	-0.020990914
220	0xbdb91eaf	-0.090390556
221	0x3cb21cc1	0.021742227
222	0x3da8029f	0.08203625
223	0x3d0368a5	0.03208222
224	0x3c16710a	0.009182224
225	0x3d70bc11	0.058773104
226	0x3d968d0e	0.07351123
227	0xbd968c60	-0.07350993
228	0x3dc2770b	0.09495362
229	0x3d45aa24	0.048257962
230	0xbd31df50	-0.043425858
231	0xbd1b3985	-0.03789665
232	0xbcb77abe	-0.022397395
233	0xbd057681	-0.032583717
234	0xbd264f03	-0.040602695
235	0xbdb9d025	-0.090729035
236	0x3ce40d5c	0.027838401
237	0x3d9b8365	0.07593421
238	0x3d689632	0.056783862
239	0x3d51cf54	0.051223114
240	0x3d31083e	0.04322075
241	0x3c55ac8b	0.013041626
242	0x3d0e8fc7	0.034805086
243	0x3c9660b9	0.018356668
244	0x3e089f40	0.13341999
245	0x3ca17aa1	0.019711794
246	0x3ee2ee33	0.44322357
247	0xbd3c3aa2	-0.045954354
248	0x3bfb770e	0.0076741045
249	0xbe13370e	-0.1437647
250	0x3e57b952	0.21066788
251	0x3f04ee51	0.5192614
252	0x3db0fb0c	0.086416334
253	0x3e361f86	0.17785463
254	0xbda7ba5a	-0.081898406
255	0xbd897c04	-0.06713107

model.lin4.biases f4 [3, 1, 40]
0	0xbd7035c6	-0.058645032
1	0x3c778423	0.015107187
2	0x3d884e3a	0.066555455
3	0xbb143ceb	-0.0022619318
4	0x3c2128f1	0.009836421
5	0x3bf01865	0.007327127
6	0x3d464163	0.0484022
7	0x3d49cd9d	0.049268354
8	0x3d7b84a4	0.061405793
9	0x3db6aa30	0.089191794
10	0xbd88c6bf	-0.06678533
11	0xbd17346d	-0.03691523
12	0x3dba5cfd	0.09099767
13	0xbc0946dc	-0.008378711
14	0x3abe1716	0.001450273
15	0xbbff70cf	-0.0077954303
16	0x3d6ee5db	0.058324676
17	0x3cedc2b0	0.029023498
18	0xbd4c8a17	-0.04993638
19	0x3d860b05	0.065450706
20	0xbd4a8626	-0.04944434
21	0x3d439772	0.04775185
22	0x3de3949c	0.11112329
23	0x3cb6b6e6	0.02230401
24	0x3d1073f4	0.03526683
25	0x3e012420	0.12611437
26	0x3d9470e2	0.07248093
27	0x3d11f31d	0.03563224
28	0x3dc71506	0.09720807
29	0x3da547e4	0.08070353
30	0xbd6d97fa	-0.058006264
31	0x3cf14c96	0.029455464
32	0x3d98bf8c	0.0745841
33	0x3d2190d1	0.03944475
34	0x3d802bbe	0.06258343
35	0xbc2ce3f9	-0.0105524
36	0xbd442ac4	-0.047892347
37	0x3dddd6be	0.108319744
38	0xbd1f0e08	-0.03883174
39	0x3c29a10c	0.010353338
40	0xbcb1fc3b	-0.021726718
41	0x3d034d90	0.03205639
42	0x3d81c4ff	0.06336402
43	0xbd9dde94	-0.07708469
44	0x3d69cdbb	0.057080965
45	0xbbf675e5	-0.0075213783
46	0x3d37802d	0.044799972
47	0xbd501fc0	-0.05081153
48	0x3d966c00	0.07344818
49	0x3cafadb9	0.021445142
50	0x3d39882d	0.045295883
51	0x3d54406a	0.051819243
52	0xbdac85c1	-0.08423949
53	0xbd8b3bcc	-0.06798515
54	0x3e0d38be	0.13791177
55	0x3c1c3972	0.00953518
56	0xbcb867da	-0.022510458
57	0x3d6d602c	0.057953045
58	0xbc925e8b	-0.017867347
59	0x3afe5703	0.0019404594
60	0xbc112896	-0.008859774
61	0xbbf54c0b	-0.0074858717
62	0x3e049ce2	0.12950471
63	0xbd4b290b	-0.04959969
64	0x3c0f72ef	0.00875543
65	0x3d71bff2	0.059020944
66	0x3d8a7d8a	0.06762226
67	0xbd4a49cb	-0.04938678
68	0xbd0f6caf	-0.035015758
69	0x3d8fb2df	0.07016539
70	0xbb29f437	-0.0025932917
71	0xbd954710	-0.07288945
72	0xbdbdccb4	-0.0926756
73	0x3d9ab1fc	0.07553479
74	0x3d4cd4fd	0.05000781
75	0x3dec2b0a	0.115316465
76	0x3dcab4c0	0.098977566
77	0x3e04d6b6	0.1297253
78	0xbbcd192f	-0.0062591056
79	0x3d566b1b	0.052348237
80	0xbd86e80f	-0.065872304
81	0x3c1c9a5e	0.009558288
82	0xbd79a4be	-0.060948126
83	0x3d895454	0.067055374
84	0x3d4e9c57	0.050442066
85	0x3dfb3b12	0.12267126
86	0x3bf42c95	0.0074516037
87	0x3da2ec1a	0.07955189
88	0xbc6d0b91	-0.01446809
89	0xbcad94d9	-0.02118914
90	0x3da234bf	0.07920217
91	0xbc8f89e9	-0.017521815
92	0xbd99ff8b	-0.07519444
93	0x3d8a503f	0.06753587
94	0x3e3a6ebf	0.18206309
95	0x3dd620c5	0.10455469
96	0x3ce6b429	0.028162079
97	0x3cfd422d	0.030915344
98	0xbd8971a4	-0.06711128
99	0x3c7d82d3	0.015473085
100	0xbc732853	-0.014841157
101	0x3e073bec	0.13206452
102	0x3d3b977d	0.045798767
103	0x3d179459	0.03700671
104	0xbd108ce1	-0.035290603
105	0x3d1f5538	0.03889963
106	0xbcebdc72	-0.02879164
107	0x3d0ca7e1	0.03433979
108	0xbca74fc4	-0.020423777
109	0xbda3d274	-0.07999125
110	0x3c5aba58	0.013350092
111	0x38e9d14b	0.0001114929
112	0xbbb7df2c	-0.005611321
113	0x3d86b39f	0.06577229
114	0x3daf8ca2	0.085717455
115	0x3d59f1ac	0.053208992
116	0xbc0bb4fc	-0.008527037
117	0xbd11f022	-0.0356294
118	0x3d0d9d94	0.034574106
119	0x3ca2693d	0.019825572
